data.pth (torch, 15231 bytes, 6 tensors)

l1.weight f4 [8, 231]
00000000: 72ca 443f 0db0 ec3e 47f8 ce3e 5d23 9c3f
00000010: 05d5 a33d c533 9c3e c1ee 0cbf d99d 4e3f
00000020: 6e0f e2bd 22b8 163f 3f6d c03b 1317 613e
00000030: e7d1 a03f dea0 a23f 4206 8cbc 8f9e 743f
00000040: 0320 143e 25aa 913f 3356 923e 8c0b 083f
00000050: a4d1 a4bc 112c 9a3e 8389 e43f c238 e13f
00000060: 1c4a 873f a07a bd3b fb6e 6bbc 70f1 80be
00000070: c3ea ab3e 7bd1 bc3e d476 7a3f 7747 6dbd
00000080: 02a5 043f b869 6f3f d288 3e3d 2bb0 0640
00000090: a22a 593f 8966 9bbe bf76 c23f bc35 b63f
000000a0: a28d bfbb eb98 663f dc55 a93f fc77 353f
000000b0: bbbf a43e a0c8 de3e 8f51 5fbe 7c57 873d
000000c0: b117 213e e9cb bc3f 668d 2cbf 089e 783f
000000d0: 8530 8fbe 5a04 a33e 910d 01bd a4d5 b53f
000000e0: 3bf6 be3f ad96 543e 4816 2d3f c05f 0940
000000f0: d81d 933f d0fa 2fbe 718e 9a3e 4bb2 5f3f
00000100: 4773 b4be f459 a33d 76f8 af3f 41ba 6f3f
00000110: f413 03bd a588 5a3e e61c 603f b001 af3f
00000120: 2892 9cbd 89a1 d13e 6a2d 973f 741d b53d
00000130: 7c7b ba3f a88b 5b3f 6023 353f 09dd 4a3f
00000140: de5c 113f ec0d b43f 777e 4b3e a4c9 e53e
00000150: 1685 46be a268 453f 5abf d73f 7674 ca3e
00000160: b996 e33e 9e58 43be e889 bebe 79c7 5e3f
00000170: 7cd7 02bf a0d6 8b3f 2031 b33f 7e61 3e3f
00000180: 409f bc3f 324d d43d e729 cbbe 280e 433f
00000190: 06a1 32be c598 2abe 5131 c53f 1e07 eaba
000001a0: 9598 d03f 5769 5c3d ddba c43e 325a 883d
000001b0: 827d c53f e01b 9d3e 16a6 06bf 090f 0f3e
000001c0: ca83 42be 769e 71bf 5d9c 4c3e ac83 b13e
000001d0: 73cb 913e aa40 4d3f 8274 e7be 31f3 f23d
000001e0: e5a1 c63e 3576 853f 5e14 84be 08f6 243f
000001f0: b77a 5b3e 2c8c 813e 546f 123f 91d8 643f
00000200: b858 063f 8563 f93e 8704 e53e 309c 003e
00000210: ef56 803f 7628 993f 3a38 c13f 87ac 613f
00000220: db6f c03f 8dd7 bf3f baeb 0b3f 0877 d5bc
00000230: b720 a03f 66ce 6b3f ec33 f13f 8808 623f
00000240: 221d 963f 4d44 b53f 8226 ac3f 7271 713f
00000250: 1320 16bd cc44 83be dd73 303f 72d0 98be
00000260: 1820 f93e 5e4d ab3e d136 283f b043 bc3e
00000270: 01c2 2e3f 795e c63f d566 f9be fb4a 1d40
00000280: 0d48 1b3e 52f5 873f 6e80 cf3e ccc9 bb3e
00000290: 61d9 72be 5039 89bd 6a80 f73e 3707 433f
000002a0: dd07 923f 1bac b03d 35a2 00be 3ce0 183f
000002b0: b96f 99bd 035e 8b3e a5a7 67be 420f fd3d
000002c0: 1ef2 a9be e34f 883f 22c5 a33f acc1 5cbd
000002d0: 9b26 073f c17c 233e 6a52 97be acf8 193f
000002e0: d952 c23f ff6d 7a3e ddf6 dbbe 8fc5 1fbf
000002f0: 27a3 c83e c9bc c13f 60fb bb3f ebee e23f
00000300: 35a1 c73f 5289 523f 961f fb3f b846 62bd
00000310: 135f 763e f346 b23f 9c04 2640 c3ae 173f
00000320: 2841 173f 4f3f bf3e 7b7e b93f 2252 393f
00000330: 8afd 7e3f 0eba 5b3e bc86 3a3f 381d 503f
00000340: 10c7 763f 5a57 b0be 699a ef3e 8d7b dabd
00000350: f535 dd3e 7c94 b0be 79aa ea3f f54f 1abe
00000360: 806f 1d3f 4e7c 14bd 1212 aebe 7b73 553f
00000370: 5da4 973d 8aba f7bd 6d06 433f dbde 063f
00000380: 75fe 8b3f 4a75 cebe d9a7 2c3f 9626 7c3e
00000390: 280b 013f c976 c73d b580 8c3f 2424 d83e
000003a0: 6ff0 4c3e 2a73 843e 6df3 393f fb5e 8ebd
000003b0: 3442 ac3f 8c31 4d3f 6881 b7be 58a4 103f
000003c0: a9da 263f 08e0 963f 36e0 d63f 31f3 d2be
000003d0: 30fe 813f afe4 6e3f 15cf 4d3f cbf4 783f
000003e0: 0101 083f b479 6e3f 341d 16bf 9200 583f
000003f0: ca92 1a3d ce93 133f de67 3940 025c 0cbf
0.7687141 0.46228066 0.40423796 1.2198292 0.079996146 0.30508247 -0.5505181 0.80709606
-0.11038099 0.58874714 0.005872398 0.21981458 1.2564057 1.2705343 -0.017092828 0.9555444
0.14465337 1.1380049 0.2858139 0.5314262 -0.020119496 0.30111745 1.7854465 1.7595446
1.0569491 0.0057824403 -0.0143697215 -0.25184202 0.33577546 0.3687857 0.9783757 -0.057929482
0.5181428 0.9352069 0.0465172 2.1045024 0.8483068 -0.30351666 1.5192488 1.4235148
-0.0058457414 0.90077084 1.3229327 0.70886207 0.3217753 0.4351244 -0.21808456 0.06608483
0.15731694 1.4749728 -0.67403257 0.97116137 -0.27966705 0.31839257 -0.03150708 1.4205823
1.4918894 0.20760603 0.67612123 2.146469 1.1493483 -0.17185521 0.301868 0.8738143
-0.352442 0.079761416 1.3747699 0.93643576 -0.03200145 0.21341188 0.87544096 1.367239
-0.076450646 0.40943554 1.1810734 0.08843508 1.4568934 0.85759974 0.707571 0.7924352
0.5678233 1.4066749 0.19872461 0.44880402 -0.19386706 0.7711278 1.6855271 0.39541978
0.4445093 -0.19076774 -0.3721459 0.8702312 -0.51110053 1.0924873 1.3999367 0.7436751
1.4736099 0.10366286 -0.39680406 0.76193476 -0.17444238 -0.1665984 1.5405675 -0.0017854904
1.6296564 0.053811397 0.38423815 0.066578284 1.5428927 0.3068533 -0.5259718 0.13970579
-0.18995586 -0.9438242 0.19981523 0.3467077 0.28475532 0.80176795 -0.45206076 0.11862791
0.3879539 1.0426699 -0.2579679 0.64437914 0.21433531 0.25302255 0.57201123 0.89392954
0.52479124 0.4870874 0.44730017 0.12559581 1.002653 1.1965473 1.5095284 0.8815388
1.5034136 1.4987656 0.54656565 -0.026057735 1.2509984 0.92111814 1.884397 0.8829427
1.1727641 1.4161469 1.3449252 0.9431373 -0.036651682 -0.25638425 0.68926793 -0.2984653
0.48657298 0.33457464 0.65708643 0.3677039 0.68264776 1.5497581 -0.48711267 2.4577014
0.15164204 1.0621741 0.40527672 0.36677396 -0.23715736 -0.067003846 0.4834016 0.76182884
1.140865 0.086265765 -0.12561877 0.59717155 -0.074920125 0.27220163 -0.22622545 0.12356426
-0.33192533 1.064938 1.2794535 -0.053895637 0.5279328 0.15965559 -0.29555064 0.6014507
1.5181533 0.24456023 -0.4296178 -0.62410825 0.39186975 1.5135738 1.4686089 1.7729162
1.5596071 0.82240784 1.9619014 -0.055243224 0.24059705 1.3927902 2.5940313 0.5925104
0.59083796 0.37352988 1.4491724 0.7239095 0.9960562 0.21457693 0.7286184 0.81294584
0.96397495 -0.34441644 0.46797493 -0.10668097 0.43205228 -0.34488285 1.8333274 -0.15069564
0.6149826 -0.03625136 -0.33998162 0.83379334 0.07404397 -0.120961264 0.7618168 0.526838
1.0937029 -0.4032386 0.67443615 0.24624094 0.5040765 0.09739453 1.0976778 0.42215073
0.20013593 0.25869113 0.72637063 -0.0695171 1.3457704 0.8015373 -0.35840917 0.5650077
0.651774 1.1787119 1.6787174 -0.41201165 1.0155697 0.93317693 0.8039411 0.97248524
0.5312653 0.93154454 -0.5863831 0.8437587 0.037737645 0.5764741 2.8969646 -0.5482789

l1.bias f4 [8]
00000000: a5e9 8a3f f29b 893f 196a 653f b35a 6f3f
00000010: 15e5 f13f d2ab 2d3f 4130 c13f bc5d 613f
1.0852553 1.0750716 0.8961502 0.9349777 1.8898035 0.678403 1.5092851 0.8803365

l2.weight f4 [8, 8]
00000000: c88e a63f c17e 7ebf 4989 d5bf f757 53bf
00000010: ecde 993f c1cb b73f 761b 963f 2c07 ca3f
00000020: df15 783f cfc0 c53f 7b2e fd3f 4a6f a1bf
00000030: e76e fbbe f694 cc3f 6e56 1dbf 8edf 983f
00000040: 131e c53f 1598 b0bf 8d44 1040 f519 e73f
00000050: c779 adbf c8ad 9c3f 853d f73e bd50 ca3f
00000060: 3d64 1cbf 18f4 0240 429e 133d b99a ad3f
00000070: 680e 77bf 020d f83f b801 df3f e35a ddbe
00000080: 8a55 703f 5ff3 f03f ee18 b23e 4b72 ca3f
00000090: 31ab 3f40 7405 c9bf ea20 2dbd 1b72 313f
000000a0: 2c49 d4be 6817 483f bd5f 1b40 3d12 78bf
000000b0: c204 1d40 f9fb 803a 4b7f 0840 a527 6d3f
000000c0: 28e5 a63f 1ff0 843f 1007 71bf 056b 843e
000000d0: b83f ad3f 21bd be3f b76d 1e3d 8b0e 6abf
000000e0: 0095 fbba 9426 6ebe bc51 ce3d a654 fdbd
000000f0: 4028 3f3c a0f4 76be 67ba abbe 50c2 62bd
1.3012323 -0.9941216 -1.6682521 -0.825561 1.2021155 1.4359056 1.172713 1.5783439
0.9690837 1.5449466 1.977981 -1.2612088 -0.4910805 1.5982959 -0.61460006 1.1943223
1.5399803 -1.3796412 2.254184 1.8054796 -1.3552788 1.2240534 0.48289123 1.5805889
-0.6109045 2.0461483 0.0360396 1.3562843 -0.9650636 1.937897 1.74224 -0.43233404
0.9388052 1.8824271 0.34784645 1.581613 2.9948237 -1.5704789 -0.042267717 0.69314736
-0.41462076 0.78160715 2.4277184 -0.9690283 2.4534154 0.0009840719 2.1327693 0.9263862
1.3038683 1.0385779 -0.941514 0.258629 1.353507 1.4901468 0.03867885 -0.9142844
-0.0019194186 -0.23256904 0.10074183 -0.12369661 0.011667311 -0.24116755 -0.3354065 -0.055361092

l2.bias f4 [8]
00000000: 03be 203f 8411 88be 7a29 283f 0798 003f
00000010: 1094 a03f 89a8 253f 0eb8 7fbe 00bb b3bd
0.62789935 -0.26575863 0.6568829 0.50231975 1.2545185 0.6471029 -0.24972555 -0.08775902

l3.weight f4 [44, 8]
00000000: 0851 75be 9747 d7bf 470f 3dbe d16c d0bf
00000010: b7c5 1c3f 7bb7 96bf fed7 743e 3126 05be
00000020: f4c4 f9bf ee68 383e 281e c5bf 6a12 c3bf
00000030: 322a 213f 1f6f 383e dce5 3bbf b299 eabd
00000040: 1087 d6bf bf20 8bbe b0cc 4abf 16f5 243f
00000050: ab2e 44be 753c cdbf 1eba f5bd d858 d83d
00000060: 7cd9 b1bf d7dc 1fc0 305e 793f f6d3 7f3f
00000070: d7b7 8fbf b757 10be 9a8e 98bf 407c 2c3d
00000080: dc35 05c0 7e7c 8bbf cc1b c3bf dc1d 023d
00000090: 8f40 483f 2b4e 8dbf 189c 8c3d d778 2abe
000000a0: b187 a13e 5d34 043f 8c73 9f3e cef2 27c0
000000b0: 0cf6 08bf 924e e63e 5f02 28c0 2899 9bbd
000000c0: 0b7d 38bf 2920 09bd c319 40c0 2bc0 6fbf
000000d0: 4aa3 a83e 2437 70bf be50 093f c4c4 30be
000000e0: ae65 4bbd 81fb b63e ef1c 843e d630 49bf
000000f0: a946 5dbf a928 fbbf e98a 97be e7e2 07be
00000100: 0cab 32be f0a8 4cbf 96b9 cc3e 29b7 27be
00000110: 94d4 07be d74d 95be 49b8 05c0 2887 d4bd
00000120: 0d18 06bf 3d82 b8be 9ec2 743d f1ee f0bc
00000130: d357 90bf 9f4d 72be 167f 1fbf b0cd 16bd
00000140: 608b bd3e 8d2d a4be 8385 923e d055 f3bf
00000150: 0e05 b1bc fcf1 11c0 29be 263b 7efb 103e
00000160: 5d9e 823d c0f2 5a3e 0677 5ebf 6ccd e83d
00000170: 239d e0bf 9fe4 243e 46ae 82bf 30cc 9fbd
00000180: 04c7 44bf ea64 f1bf 672e debf c91c e83e
00000190: 56c1 82be 168d d83a d19b 9ebc d62d 66be
000001a0: b2ca bd3e 7261 73be 54f6 59bf d0af aebe
000001b0: e18f ca39 f428 edbf 3f00 a2be be06 193e
000001c0: 411e 68be b105 433e 73fb 7dbd 14b8 93bd
000001d0: 96ac 7ebf c344 d93e 74a3 31c0 c08d 84bb
000001e0: 95a4 573f 3fa4 a53e 42be cd3e af38 1abf
000001f0: 6691 8ebf dd24 27bf 1677 1ac0 da3e 583e
00000200: a372 bebd d4df 9a3e f700 47bf d96e 9abf
00000210: d618 5abe 2a44 7b3e a2c7 c2bf dee9 6e3e
00000220: d5a3 acbe 4578 f3bf 8f4e 703f d10a fbbe
00000230: 2193 293f 0391 09c0 21e6 b3bf 5618 643e
00000240: af3d 2d3f 7736 b2bf 9aa6 893e d683 5c3e
00000250: 2759 9ebf b73a 853d 6ab9 e4bf a0e6 fb3c
00000260: 5f97 4e3f a6e0 d1bf 8422 7a3e 7b13 dbbf
00000270: 3a1c 353e ca86 91be b205 97bf 10cd c2bd
00000280: 93c9 a4be dc3a 44c0 e0cf 51bc 303d f43d
00000290: 2a7e 9e3e 3db3 77be 6c9b 4dbf f0c7 f03d
000002a0: 5f27 dcbf de5b e9bf 747b 053c 8c25 ea3e
000002b0: 2266 bd3e 9941 eebf 49bc ccbd 6f26 3abe
000002c0: d21d ffbd 4d69 c13d 3a70 dcbf 0dc7 73bc
000002d0: 4d66 08bf 2d47 a5be 7131 20bf 2bdf 893e
000002e0: dfb9 803e d65f b5be 434a 2abe 4893 ef3d
000002f0: ef8c efbf 7e33 f4bf 8a72 6c3e 22d2 583e
00000300: dba1 1d3d 77e8 6d3e 08cc b3bf b5eb ffbd
00000310: a1b1 e4bf ec15 24bf 7d0c b43e 33a7 94be
00000320: 68f6 aa3e 5caa 54be faae 3cbe 5dfb d7be
00000330: 8d71 16c0 c731 11be d12c 7dbe 3945 8abe
00000340: 937f 20c0 d42d 0abf a197 e13e 2adc 4fbe
00000350: 8817 c2be 769f 57bf a753 60be 787f cd3d
00000360: 0e03 22c0 129f 73bf 6eef a8bd af06 353e
00000370: ea83 113f 9946 dfbe f1ee a3bf 29d9 a63e
00000380: 2f39 bcbe 2781 38bb 5037 c13e b505 10c0
00000390: b452 823e 7ef2 41bf 379f 70bf 7843 093e
000003a0: 3c59 89bf ae35 03bf 09fb b8bf 4dd7 543f
000003b0: 2c57 d1bf ee6e 553d 7feb c73c c8fe 8fbe
000003c0: 760f 1cc0 7b1e ad3e 2412 0cc0 edb9 dd3e
000003d0: 56c7 c2be 3c20 643e b06f 1ebf a2d5 adbe
000003e0: ed9e 773f bd1e 00bf 7cad 21bf 57ec 67bf
000003f0: f854 9ebf b106 b8bc be57 0ebf 68c0 32bd
-0.23956692 -1.6818722 -0.18462859 -1.6283208 0.6123919 -1.1774744 0.2391052 -0.1300285
-1.951323 0.18008777 -1.5399828 -1.5239995 0.6295501 0.1801114 -0.7339761 -0.11455096
-1.6759968 -0.2717342 -0.7921858 0.6443647 -0.19158427 -1.6034075 -0.1199839 0.105638206
-1.3894496 -2.497854 0.97409344 0.999328 -1.1227978 -0.1409596 -1.1918519 0.04211068
-2.0814123 -1.0897367 -1.5242858 0.031766757 0.7822351 -1.103948 0.0686571 -0.16647659
0.31548837 0.516424 0.31142843 -2.6241946 -0.5350044 0.4498182 -2.6251447 -0.075975716
-0.720658 -0.033477936 -3.0015724 -0.936526 0.3293708 -0.9383414 0.5363883 -0.1726256
-0.049657516 0.35738757 0.25803325 -0.7859014 -0.86435944 -1.9621783 -0.29598168 -0.1327015
-0.17448062 -0.7994528 0.3998534 -0.16378464 -0.13264686 -0.2916095 -2.0893729 -0.103773415
-0.5238045 -0.36036864 0.059755914 -0.029410811 -1.1276802 -0.23662423 -0.6230329 -0.036817253
0.37020397 -0.32066002 0.28617486 -1.9010563 -0.021608856 -2.2803946 0.0025442934 0.14158437
0.06377862 0.21381664 -0.86900365 0.11367306 -1.7547954 0.16102837 -1.0209434 -0.078026175
-0.76866174 -1.8858922 -1.7357911 0.4533446 -0.2553813 0.0016521539 -0.019361408 -0.22478423
0.37068707 -0.23767641 -0.8514149 -0.3411851 0.0003863564 -1.8528123 -0.31640813 0.14943978
-0.22667791 0.1904514 -0.06200738 -0.072128445 -0.99482095 0.42435274 -2.7756014 -0.004045218
0.8423551 0.32351872 0.40184218 -0.6024274 -1.1138122 -0.65290624 -2.4135184 0.21117726
-0.09299209 0.30248892 -0.7773585 -1.2065078 -0.21298537 0.24537721 -1.5217173 0.23331401
-0.33718744 -1.9021078 0.9386987 -0.4903169 0.66240126 -2.1494758 -1.4054605 0.22274908
0.67672247 -1.3922871 0.2688492 0.21534666 -1.2370957 0.065053396 -1.7869084 0.030749619
0.80699724 -1.6396682 0.24427229 -1.711532 0.17686549 -0.28423148 -1.1798613 -0.09511769
-0.3218504 -3.0660925 -0.012805909 0.11925733 0.3095563 -0.24189468 -0.8031528 0.11756885
-1.7199515 -1.8231161 0.008147109 0.4573177 0.36991984 -1.8613769 -0.0999685 -0.18178724
-0.1245686 0.09443913 -1.7221749 -0.014879 -0.532811 -0.32280865 -0.6257544 0.26928076
0.25141808 -0.3542468 -0.16629891 0.116980135 -1.8714885 -1.9078214 0.23090568 0.2117391
0.038484436 0.2323321 -1.404664 -0.124961294 -1.7866708 -0.6409595 0.35165778 -0.29033813
0.33391118 -0.20768112 -0.18426123 -0.42183962 -2.3506806 -0.14179145 -0.24724127 -0.27005938
-2.5077865 -0.5397618 0.44060996 -0.2029883 -0.37908578 -0.84227693 -0.21906911 0.10034078
-2.5314364 -0.951646 -0.082487926 0.17678331 0.5684191 -0.4360855 -1.2807294 0.32587555
-0.36762378 -0.0028153153 0.37737513 -2.2503483 0.25453722 -0.7576064 -0.9399294 0.13404644
-1.0730357 -0.51253784 -1.445161 0.8314102 -1.6354728 0.052107744 0.024404285 -0.2812407
-2.4384437 0.33812317 -2.1886072 0.43305913 -0.38042706 0.22277921 -0.6188917 -0.3395205
0.96726876 -0.500469 -0.6315534 -0.90595 -1.236968 -0.022464128 -0.55602634 -0.043640524

l3.bias f4 [44]
00000000: 337a 5f3e 5b36 3abe 516f eabe 7608 083e
00000010: 73bf 473e f030 2ebf 3c25 c23d 35f7 753d
00000020: c6d8 75be 6bcc 2cbe 826f ac3d aca3 e5be
00000030: 46c4 89be 2ab6 a0be 3c75 08be d13b cf3e
00000040: 6201 c8be 82d6 a6be ced5 f2be b0c3 7abe
00000050: e536 a3be cc39 e0be 78c4 8ebe f99b a5be
00000060: dad9 0abf edb7 f7be 0019 ea3e ff4f b5bd
00000070: 4039 9abd 6681 063e 2b85 3f3d f147 ad3e
00000080: b863 24be b480 c9be ff83 04be c442 c63b
00000090: 4923 e2be 906b 2cbe f21e 1d3d 6936 27be
000000a0: eaf8 d23e 1fcf 7d3e fcbc 723f c6a9 233f
0.21823959 -0.18184797 -0.45788053 0.13284478 0.19506626 -0.6804342 0.09479758 0.060050208
-0.24008474 -0.16874854 0.08419706 -0.44851434 -0.26907557 -0.3138898 -0.13325971 0.40475324
-0.39063555 -0.3258553 -0.47428745 -0.24488711 -0.3187782 -0.43794096 -0.2788427 -0.3234556
-0.54238665 -0.48382512 0.45722198 -0.08853149 -0.07530451 0.13135299 0.04675786 0.3384395
-0.16053665 -0.39356005 -0.12940978 0.0060504396 -0.44167545 -0.16837907 0.03835959 -0.1632935
0.4120553 0.24786042 0.9481962 0.6393093
